lr_ws/src/skycam/skycam_util/skycam_convnet_ts.pt (torch, 42838 bytes, 8 tensors)

weight f4 [16, 3, 3, 3]
0	0xbdaf1f93	-0.08550944
1	0x3e100423	0.14064078
2	0x3e2d2175	0.16907294
3	0xbdf0a46b	-0.1175011
4	0x3da803ce	0.08203851
5	0xbe0d6a77	-0.13810144
6	0xbdde4823	-0.10853603
7	0xbcccd198	-0.025002286
8	0x3cbe7610	0.023249656
9	0x3c2c5760	0.010518879
10	0x3dd69b12	0.10478796
11	0x3c2c6af0	0.010523543
12	0xbdddf0c4	-0.10836938
13	0x3e061379	0.13093366
14	0xbdd34754	-0.10316339
15	0xbbc994c0	-0.0061517656
16	0xbe271cc1	-0.16319562
17	0xbe06a5e6	-0.13149223
18	0xbe1e9b12	-0.15488842
19	0xbdf675a8	-0.1203416
20	0x3dab29fe	0.08357619
21	0x3bb9d7a0	0.0056714565
22	0xbcd3f1f0	-0.0258722
23	0x3e2520ed	0.16125841
24	0x3e2c582f	0.16830514
25	0x3c2dab50	0.010599926
26	0xbdd4e419	-0.10395069
27	0x3dec56ec	0.115400165
28	0xbd56b34e	-0.052417092
29	0x3de55d8d	0.11199484
30	0x3cd2a13e	0.025711652
31	0x3de660c0	0.11248922
32	0xbdb7e0af	-0.08978402
33	0x3e31b52b	0.17354266
34	0xbdbd1b32	-0.09233703
35	0xbe34da4f	-0.17661403
36	0xbd065eae	-0.032805137
37	0xbdfe8dfe	-0.124294266
38	0xbb869fd8	-0.0041084103
39	0xbd07fe5c	-0.03320156
40	0xbdf966fb	-0.12177845
41	0x3e46a568	0.19399035
42	0x3e0bcb6d	0.1365182
43	0x3e149fa4	0.14514023
44	0xbd7d7c28	-0.061885983
45	0xbdebf8a2	-0.11522032
46	0xbe300661	-0.17189933
47	0xbcd2a703	-0.025714403
48	0x3d1b2207	0.037874248
49	0x3e414575	0.18874152
50	0x3db9590d	0.09050188
51	0xbd4f995b	-0.05068336
52	0x3da5087e	0.080582604
53	0xbe1bcba6	-0.15214404
54	0xbd5ebe2e	-0.05438059
55	0x3e4089d9	0.18802585
56	0x3d24a7e5	0.04019918
57	0x3c8f6ffd	0.017509455
58	0xbdb931e1	-0.09042717
59	0x3e0f77d3	0.14010553
60	0x3d303daf	0.043027576
61	0xbd1b1290	-0.0378595
62	0xbdb310d9	-0.08743448
63	0xbe1fec09	-0.15617384
64	0xbcae2a4f	-0.021260409
65	0xbdb90518	-0.09034175
66	0x3de7f88b	0.11326703
67	0x3d9fb059	0.077973075
68	0x3dd3a47d	0.10334108
69	0x3cb4f761	0.022090616
70	0x3d95abb3	0.0730814
71	0x3e089f98	0.1334213
72	0x3e3f2892	0.1866782
73	0xbe089b84	-0.13340575
74	0xbc0656e7	-0.00819943
75	0xbdbfeb9f	-0.09371113
76	0x3e1599cc	0.1460945
77	0x3dd8a4a0	0.10578275
78	0xbdcb151b	-0.09916135
79	0x3d59eb83	0.053203117
80	0xbe0da17e	-0.13831136
81	0x3dd818ea	0.10551627
82	0xbd4125c4	-0.047155157
83	0x3dde2712	0.10847296
84	0x3e1b14d7	0.15144669
85	0x3e2007c1	0.15627958
86	0x3c7f0300	0.01556468
87	0xbcc7e1e0	-0.024399698
88	0xbdbd4d00	-0.09243202
89	0xbd27cec8	-0.040968686
90	0xbd1363b8	-0.03598377
91	0xbde97507	-0.11399274
92	0x3d8ced12	0.06881155
93	0xbc91cc88	-0.017797723
94	0x3d2d9484	0.042377964
95	0xbdaddab5	-0.08488981
96	0xbe3af0ee	-0.1825597
97	0x3e3e4201	0.18579866
98	0xbe3c2ba7	-0.18376027
99	0xbd71d158	-0.059037536
100	0xbd81948c	-0.06327161
101	0x3d016194	0.0315872
102	0xbe34c0f5	-0.17651732
103	0xbca25d30	-0.019819826
104	0xbd02f9e0	-0.03197658
105	0x3e2a4d3d	0.16631027
106	0x3c8ed190	0.017433912
107	0x3d8a0e5e	0.067410216
108	0xbe271a94	-0.16318733
109	0xbb91f293	-0.004453966
110	0x3dbe77ca	0.09300192
111	0xbe03e069	-0.12878574
112	0x3e376db3	0.1791294
113	0xbd8b3427	-0.06797057
114	0x3cf0c8d7	0.029392643
115	0xbdd80512	-0.10547842
116	0x3dc49e5f	0.096005194
117	0xbd466c2d	-0.04844301
118	0x3d418be2	0.047252543
119	0x3dc2b799	0.09507675
120	0x3c3418a8	0.010992207
121	0x3d81fc7c	0.06346986
122	0x3d336c0b	0.04380421
123	0xbe19059f	-0.1494355
124	0xbd86aee7	-0.06576329
125	0xbc5dd216	-0.013538858
126	0xbdad982f	-0.08476292
127	0x3be4f7b8	0.006987538
128	0x3e1306db	0.14358084
129	0x3c151348	0.009098835
130	0xbe2caca0	-0.16862726
131	0x3d465e2a	0.048429646
132	0x3d93aa1a	0.07210179
133	0xbe0f4494	-0.13991004
134	0x3cba7d64	0.022764869
135	0x3e3ea706	0.18618402
136	0xbdc8108d	-0.09768782
137	0x3e16fa2f	0.14743875
138	0x3dad89ff	0.08473586
139	0x3e0fede1	0.14055587
140	0xbde517cb	-0.11186179
141	0xbc17add8	-0.009257756
142	0xbe039b9b	-0.12852328
143	0xbddc302c	-0.107513756
144	0x3cf2d3e0	0.029642045
145	0x3dbbfc54	0.09178987
146	0xbcc4fd0b	-0.024046442
147	0x3dea7a93	0.114491604
148	0x3cfad89d	0.030620867
149	0x3cd2ac86	0.025717031
150	0xbdc8bc99	-0.09801597
151	0x3e2513e6	0.16120872
152	0x3dc4bc64	0.09606245
153	0x3dbb65bb	0.09150263
154	0x3e071bff	0.13194273
155	0xbd42d6b9	-0.047568057
156	0x3c4d7ebc	0.012542423
157	0x3e3481d6	0.17627653
158	0x3e22f3ff	0.1591339
159	0x3e117e4c	0.14208335
160	0xbe3a4c87	-0.18193255
161	0x3da2c5ad	0.0794786
162	0xbdcd8c69	-0.10036547
163	0xbe2fc7b0	-0.17166018
164	0x3d576240	0.052583933
165	0x3db95c02	0.09050752
166	0x3c49f000	0.012325287
167	0x3ddd5a1f	0.10808205
168	0x3dada370	0.08478439
169	0x3da50c32	0.08058967
170	0xbe23b5ae	-0.15987274
171	0xbcbe7e2f	-0.023253528
172	0xbdbd5da1	-0.09246374
173	0xbe1a50c1	-0.15069868
174	0x3e1f7867	0.15573274
175	0x3e3917d5	0.18075497
176	0xbd8d26d3	-0.06892171
177	0xbdb3a0b1	-0.08770884
178	0xbe40ce26	-0.1882864
179	0x3dad13fc	0.08451077
180	0x3e2bfcf0	0.16795707
181	0x3e3aa5af	0.18227266
182	0x3c996948	0.01872696
183	0x3bea5686	0.0071514277
184	0xbdcb3329	-0.099218674
185	0xbe32a021	-0.17443897
186	0x3ad22a25	0.0016034289
187	0x3e3ad5d7	0.18245636
188	0xbe3f2920	-0.18668032
189	0xbe3dafea	-0.18524137
190	0xbdf7ec64	-0.12105635
191	0x3dbe200e	0.09283458
192	0xbe448c37	-0.19194113
193	0xbe23ed89	-0.16008581
194	0xbe3bdd2b	-0.18346088
195	0xbc6b8a00	-0.0143761635
196	0xbd43e00c	-0.04782109
197	0xbe3918fd	-0.18075939
198	0xbc6ca1e0	-0.014442891
199	0xbc1081a0	-0.0088199675
200	0xbe014500	-0.12623978
201	0xbe3d78b0	-0.1850307
202	0xbd5550b4	-0.052078918
203	0xbe0a696c	-0.13516778
204	0x3bfc8120	0.0077058226
205	0xbdb50468	-0.08838731
206	0xbe29c668	-0.16579592
207	0x3e031e9b	0.12804644
208	0x3e390d51	0.18071486
209	0xbe1b3c1f	-0.15159653
210	0xbd88d1ae	-0.06680618
211	0x3dfbdbf6	0.122978136
212	0xbdc30cb7	-0.095239095
213	0x3d976bfe	0.07393645
214	0xbe36942c	-0.1782996
215	0xbe176f50	-0.14788556
216	0xbd7253a9	-0.059161816
217	0x3d471346	0.048602365
218	0xbd5eda31	-0.054407302
219	0xbe38252a	-0.17982927
220	0x3c84ff8d	0.016235137
221	0x3dc643e8	0.09680921
222	0xbd1573c8	-0.03648737
223	0x3d0b1c94	0.0339628
224	0xbdcd78c6	-0.10032801
225	0x3d8c850b	0.068613134
226	0x3e0fd3c6	0.14045629
227	0xbd934c04	-0.07192233
228	0x3d0e37d3	0.034721207
229	0x3d2f9cb6	0.04287406
230	0xbd07f11c	-0.033188924
231	0x3e349c90	0.17637849
232	0x3e3d7cf9	0.18504705
233	0x3e1a4294	0.1506446
234	0xbe1a02f5	-0.1504019
235	0x3ae2eb78	0.0017312607
236	0x3df791b9	0.12088341
237	0x3de4b11c	0.111665934
238	0x3e338dfb	0.1753463
239	0xbd9e59f9	-0.07732005
240	0xbdb4066a	-0.08790286
241	0x3d479424	0.048725262
242	0x3e11ceb6	0.1423901
243	0x3d6017d0	0.05471021
244	0xbdba0da4	-0.09084633
245	0xbe160e9c	-0.1465401
246	0xbd5890bf	-0.052872416
247	0x3d84d3a5	0.064856805
248	0x3e046c1f	0.1293187
249	0x3d889a32	0.066700354
250	0x3d485f9e	0.048919313
251	0x3df5205b	0.11969062
252	0x3e3724ad	0.17885084
253	0xbdf12f51	-0.11776603
254	0xbd487de4	-0.048948184
255	0x3d870e47	0.0659452

bias f4 [16]
0	0xbe12e4ec	-0.1434514
1	0x3dc35d3a	0.09539266
2	0x3dcdb6a6	0.10044603
3	0xbdf9b868	-0.12193376
4	0x3e20a227	0.15686856
5	0xbc88cb38	-0.016698465
6	0xbda068e1	-0.07832504
7	0xbd05eb04	-0.03269483
8	0x3de816eb	0.11332496
9	0xbe352fc1	-0.17693998
10	0xbe22303c	-0.15838712
11	0x3dc24696	0.094861194
12	0x3e1e37de	0.15450999
13	0xbd1b4a79	-0.03791282
14	0xbdc2a355	-0.09503809
15	0xbc92e3a7	-0.017930819

weight f4 [32, 16, 3, 3]
0	0x3d6a7042	0.057235964
1	0xbd31ee0b	-0.043439906
2	0x3d44af5e	0.048018806
3	0x3d9635f9	0.07334513
4	0x3d6d0d76	0.057874165
5	0x3bbac230	0.0056994185
6	0x3cd58620	0.026064932
7	0xbda04487	-0.078255706
8	0x3bd30fb0	0.006441079
9	0x3d9931e5	0.0748022
10	0x3d5ad27a	0.053423382
11	0xbd4d4533	-0.05011482
12	0x3c1b6be0	0.009486169
13	0x3d90a565	0.070627965
14	0x3cfe6d3c	0.031057946
15	0xbd87b068	-0.06625444
16	0x3d89558d	0.06705771
17	0xbcf1b106	-0.029503357
18	0xbd6dfd06	-0.05810263
19	0x3cab70cc	0.02092781
20	0xbd99902e	-0.07498203
21	0xbd72ae78	-0.059248418
22	0xbd6f3f4b	-0.05840997
23	0xbd182d60	-0.037152648
24	0xbd912884	-0.07087806
25	0x3d681a82	0.056665905
26	0xbd566120	-0.05233872
27	0x3d290a66	0.041269682
28	0x3d3166e6	0.043311022
29	0xbd0abf23	-0.03387369
30	0x3b4daf60	0.003138505
31	0xbd99607f	-0.07489108
32	0x3c714180	0.014725089
33	0xbcd3fde0	-0.025877893
34	0x3d43b51a	0.047780134
35	0xbdaa5683	-0.08317282
36	0xbd8cae4c	-0.06869182
37	0x3cf92740	0.030414224
38	0xbd595e5b	-0.0530685
39	0xbda40a38	-0.080097616
40	0xbc03ee08	-0.008052357
41	0xbcc45500	-0.023966312
42	0x3cf606a0	0.030032456
43	0xbd3bc908	-0.045846015
44	0xbcc00cec	-0.023443662
45	0xbc87b5fc	-0.01656627
46	0xbda0832f	-0.07837521
47	0xbc011438	-0.007878356
48	0x3da794cd	0.08182678
49	0x3d736b1a	0.059428312
50	0xbd5f3e40	-0.054502726
51	0xbd389e78	-0.045073003
52	0xbd111c80	-0.03542757
53	0x3cb2aa34	0.021809675
54	0xbd2251c0	-0.039628744
55	0x3d849e2d	0.06475482
56	0x3bc2fd10	0.0059505776
57	0xbd8d75f6	-0.06907265
58	0x3d5b6916	0.053567015
59	0x3da43a53	0.08018937
60	0x3d2b1be2	0.041774638
61	0xbd9dbd8c	-0.07702169
62	0x3a38f400	0.0007055402
63	0x3d7cced6	0.06172069
64	0x3ca54bbc	0.020177715
65	0xbcb886fc	-0.022525303
66	0x3d39adc6	0.04533174
67	0xbd6e77eb	-0.05821983
68	0xbad55f40	-0.0016278997
69	0xbd185778	-0.03719279
70	0xbd02998e	-0.031884722
71	0x3cacc64c	0.021090649
72	0xbc7e8be0	-0.0155362785
73	0xbcd48fdc	-0.025947504
74	0x3d79b8e6	0.06096735
75	0xbd983613	-0.07432189
76	0xbd512713	-0.051062655
77	0x3cba7720	0.022761881
78	0x3bfe3210	0.0077574328
79	0x3d02e69e	0.031958215
80	0xbd36118b	-0.044450324
81	0xbd605a03	-0.054773342
82	0x3d6d6576	0.05795809
83	0x3b033880	0.002002269
84	0xbd050876	-0.032478772
85	0xbcfe5c10	-0.031049758
86	0x3da9add1	0.08285106
87	0xbd39f89b	-0.045403104
88	0xbc871554	-0.016489662
89	0xbd9bfe73	-0.07616892
90	0xbd686e33	-0.05674572
91	0x3c003e58	0.007827364
92	0x3da16fbf	0.07882642
93	0xbc8ebc34	-0.017423727
94	0x3d3520ce	0.044220738
95	0x3d26e408	0.04074481
96	0x3d86dbed	0.06584916
97	0xbcd7ac9c	-0.026327424
98	0x3d7e7882	0.062126644
99	0xbcadaee6	-0.021201562
100	0x3d95dbd5	0.0731732
101	0xbd489048	-0.048965722
102	0xbc4fab48	-0.012675114
103	0x3c1de9a8	0.0096382275
104	0x3da10d5f	0.078638785
105	0xbc635cd8	-0.013877116
106	0x3b178260	0.002311848
107	0x3d6c1782	0.057639606
108	0xbd859556	-0.06522624
109	0x3d8d4219	0.06897373
110	0x3d3e80fe	0.046509735
111	0x3d96a091	0.07354844
112	0x3d78512a	0.06062428
113	0x3c9967fc	0.018726341
114	0x3d58811e	0.05285751
115	0x3d87322d	0.06601367
116	0xbc4b8200	-0.012421131
117	0xbc7ea378	-0.015541904
118	0xbd83f50b	-0.064432226
119	0x3d97c9a5	0.074115075
120	0xbd1f8133	-0.038941573
121	0xbd6a6130	-0.05722159
122	0x3c99dc9c	0.018781953
123	0x3d846f05	0.06466488
124	0x3d949131	0.072542556
125	0x3c40baa0	0.011763245
126	0xbd92e3db	-0.07172366
127	0xbcb51e56	-0.022109192
128	0xbd7b83d3	-0.061405014
129	0xbcf3dc4c	-0.029768132
130	0x3d01fbe0	0.031734347
131	0x3ce843c4	0.028352626
132	0x3d9590f3	0.073030375
133	0xbc060960	-0.008180946
134	0xbda66cba	-0.08126207
135	0xbd9b555b	-0.0758464
136	0x3d958783	0.073012374
137	0x3d4d54e2	0.05012978
138	0x3d91fba5	0.071280755
139	0xbd874922	-0.06605746
140	0x3d842fe3	0.06454446
141	0x3d8ce839	0.068802305
142	0xbc9a6164	-0.018845268
143	0xbd75d3ce	-0.060016446
144	0xbd86cedb	-0.06582423
145	0xbd9ac448	-0.07556969
146	0x3ce23134	0.027611353
147	0x3d69045a	0.056888916
148	0xbd6a4eb6	-0.05720397
149	0xbda0eaa0	-0.07857251
150	0x3da5df21	0.08099199
151	0x3d966e8d	0.07345305
152	0xbd9f5cd4	-0.077813774
153	0x3d44a83c	0.048012003
154	0x3d044bdc	0.032298908
155	0xbd4356ae	-0.047690086
156	0xbc888eec	-0.016669713
157	0xbc92b9b4	-0.017910816
158	0x3d7c8386	0.061648868
159	0x3c24674e	0.010034395
160	0xbd8a8d0c	-0.06765184
161	0xbcf39f40	-0.029739022
162	0x3d8a59da	0.06755419
163	0x3d41bac5	0.047297258
164	0xbd913ccf	-0.070916764
165	0xbd23ab90	-0.039958537
166	0xbc71c5ce	-0.014756633
167	0xbcd5a35c	-0.026078872
168	0x3d4c8671	0.0499329
169	0x3d2328e1	0.039833907
170	0x3b8ca150	0.004291691
171	0x3d8026bb	0.06257387
172	0xbad38ec0	-0.0016140565
173	0xbd2e1a8e	-0.042505793
174	0x3d9690a7	0.07351809
175	0xbc9fb9e4	-0.01949782
176	0xbd806462	-0.062691465
177	0x3cfc48b0	0.030796379
178	0x3d8a1b5f	0.06743502
179	0xbc9b1ff4	-0.018936135
180	0xbd4ff0e7	-0.05076685
181	0x3ca9d2fc	0.020730488
182	0xbb080460	-0.002075456
183	0x3cb4da01	0.022076609
184	0x3d92069f	0.07130169
185	0xbcc3a836	-0.02388392
186	0xbc44f206	-0.0120205935
187	0x3d653b04	0.055964485
188	0xbd913a98	-0.07091254
189	0x3baf54b9	0.005350676
190	0xbcdb5ea8	-0.026778534
191	0xbb1c11e0	-0.0023814365
192	0x3d645a19	0.055749986
193	0x3d069b26	0.032862805
194	0xbd085493	-0.03328378
195	0xbc8496cb	-0.016185185
196	0x3d2a203d	0.04153465
197	0x3bcc9d10	0.0062443092
198	0xbb8be3f0	-0.0042691156
199	0x3cd21492	0.025644574
200	0x3d56e472	0.052463956
201	0x3c134a48	0.008989878
202	0xbc9bba2a	-0.019009668
203	0x3d62029a	0.055178262
204	0xbd2e94a6	-0.04262223
205	0x3da9a11f	0.082826845
206	0xbd3d53de	-0.04622256
207	0xbd85684f	-0.06514036
208	0xbcbf451c	-0.023348384
209	0xbd9d96fb	-0.07694813
210	0x39b46100	0.00034404546
211	0xbd01f1b6	-0.031724654
212	0xbc38aaa0	-0.011271149
213	0xbd47f4c0	-0.048817396
214	0xbd1a5793	-0.037681174
215	0x3ca272e0	0.019830167
216	0xbd5d1836	-0.053978167
217	0x3c3642de	0.011124341
218	0x3bee32d0	0.007269241
219	0x3d5a6c3f	0.053325888
220	0xbd6f651f	-0.058446046
221	0xbd4936cb	-0.04912452
222	0xbd1f5671	-0.038900796
223	0xbd0babe0	-0.03409946
224	0x3c166d20	0.009181291
225	0x3dab8a09	0.083759375
226	0x3d8f3d3b	0.06994101
227	0x3d5c45ba	0.053777434
228	0xbd1691eb	-0.036760252
229	0x3d6667ba	0.056251265
230	0xbda14692	-0.07874788
231	0x3da4dee9	0.08050329
232	0x3d6f3c3e	0.05840706
233	0x3bd1f200	0.0064070225
234	0x3d91d58f	0.07120811
235	0x3c2ada28	0.010427989
236	0x3d5d366a	0.05400697
237	0xbd112f60	-0.03544557
238	0x3d22fde0	0.039792895
239	0xbd6fa493	-0.05850656
240	0x3d0b0496	0.03393992
241	0x3d4296b2	0.047506995
242	0x3d8871c9	0.06662328
243	0xbc36f286	-0.0111662205
244	0xbc65b037	-0.014019064
245	0xbc560e48	-0.013064928
246	0xbbda1fc1	-0.0066566174
247	0x3d52c280	0.05145502
248	0x3d3386ae	0.043829612
249	0x3d970464	0.07373884
250	0x3d88f75f	0.06687807
251	0x3daaaa1b	0.08333226
252	0xbd0a7e17	-0.033811655
253	0xbd707762	-0.058707602
254	0xbd4dc5e6	-0.05023756
255	0xbd870036	-0.06591837

bias f4 [32]
0	0xbd40a8eb	-0.047036093
1	0xbd4c6efc	-0.04991053
2	0x3b595ee4	0.0033168131
3	0x3d133fd5	0.035949547
4	0xbbcc03ff	-0.0062260623
5	0xbd7e1863	-0.062034976
6	0x3c6205c6	0.013795322
7	0x3d8dd17b	0.06924721
8	0xbd1fe87e	-0.03904008
9	0xbd49c409	-0.04925922
10	0x3d1d303c	0.038376078
11	0x3d5ff62d	0.05467813
12	0x3d62bc5e	0.055355422
13	0xbda0efdc	-0.078582495
14	0xbcad0272	-0.02111933
15	0x3d455b08	0.048182517
16	0x3ca93372	0.020654414
17	0x3b7fc65c	0.0039028144
18	0x3be39ceb	0.0069461963
19	0x3c9b6907	0.01897098
20	0xbd214e62	-0.039381392
21	0x3d803e43	0.062618755
22	0xbcd25a44	-0.025677808
23	0xbd4d88eb	-0.050179403
24	0x3d20f34c	0.039294526
25	0x3d9bc12a	0.076052025
26	0xba8809d4	-0.0010378906
27	0x3c40735b	0.011746253
28	0x3cb5c062	0.022186462
29	0x3d19d440	0.037555933
30	0xbdad92e1	-0.084752806
31	0xbd87c46c	-0.066292614

weight f4 [16, 32]
0	0xbc80abb8	-0.015706882
1	0x3b366d40	0.0027836114
2	0xbe33859c	-0.17531437
3	0x3d13e6fc	0.036108956
4	0x3de32636	0.110912725
5	0x3e28e599	0.16493835
6	0x3da6950a	0.08133896
7	0xbc3fcf10	-0.011707082
8	0x3e179667	0.14803468
9	0x3df388fa	0.118913606
10	0x3d218ebc	0.039442763
11	0xbd8452bf	-0.06461095
12	0xbe14a947	-0.14517699
13	0x3b2e7280	0.002661854
14	0xbde725d8	-0.11286515
15	0xbcee3670	-0.029078692
16	0xbe31c153	-0.17358904
17	0x3e06480d	0.13113423
18	0xbd5db4be	-0.054127447
19	0x3cae1610	0.021250755
20	0xbe0bb50e	-0.13643286
21	0xbdce5bf8	-0.100761354
22	0xbe16c4c7	-0.14723502
23	0xbe22c235	-0.15894397
24	0xbe2b1916	-0.16708788
25	0xbdc65a0e	-0.09685145
26	0x3cc32dd0	0.023825556
27	0x3e20b9e7	0.15695916
28	0xbdd7e892	-0.10542406
29	0xbd20ed80	-0.039288998
30	0xbd9c9c5e	-0.07647012
31	0x3d072268	0.032991797
32	0x3d851d1a	0.06499691
33	0xbc913ac0	-0.01772821
34	0x3dc907e6	0.0981596
35	0x3cb98f38	0.0226513
36	0x3e0f8267	0.14014588
37	0x3da4a2be	0.08038853
38	0x3df55666	0.1197937
39	0xbd3d93ac	-0.04628341
40	0xbd333724	-0.043753758
41	0xbd41779c	-0.04723321
42	0x3da72896	0.08162038
43	0xbdf7aef0	-0.120939136
44	0x3c8d9c78	0.017286524
45	0x3d83d1d8	0.06436509
46	0xbde61623	-0.11234691
47	0xbaf0b280	-0.0018363744
48	0x3e2029ef	0.15640996
49	0x3e1adcef	0.15123342
50	0x3d5eb7a0	0.054374337
51	0x3bf42500	0.0074507
52	0x3e1fa751	0.1559117
53	0x3e1443a1	0.14478923
54	0xbe28feda	-0.16503468
55	0xbc2b6590	-0.010461226
56	0xbc8d1ec8	-0.017226592
57	0xbe108e12	-0.14116696
58	0x3d7a31e4	0.061082736
59	0xbccfb918	-0.025356814
60	0x3c932668	0.01796265
61	0x3d013070	0.031540334
62	0xbd9fd067	-0.078034215
63	0x3d8815f6	0.06644814
64	0xbe209eb6	-0.15685543
65	0xbe020b9c	-0.12699741
66	0x3c50b96a	0.012739519
67	0xbe2fed4d	-0.17180367
68	0xbe122892	-0.14273289
69	0xba71c100	-0.00092221797
70	0x3aee35e9	0.0018174025
71	0xbe3274af	-0.17427324
72	0x3da60c4e	0.08107816
73	0x3d36c0e1	0.044617537
74	0x3dfe629b	0.12421151
75	0x3e26a20f	0.16272758
76	0xbe132479	-0.14369382
77	0x3e17eb19	0.14835776
78	0x3db5cd4a	0.088770464
79	0x3e28db5c	0.16489929
80	0x3dd16c93	0.10225787
81	0xbb10d679	-0.0022100492
82	0x3e315f1f	0.17321442
83	0x3d7235f4	0.059133485
84	0xbce4466c	-0.027865611
85	0xbe036ced	-0.1283452
86	0xbe017f6b	-0.12646262
87	0xbe2bda34	-0.16782457
88	0xbdf1ff1e	-0.11816238
89	0xbd8227d4	-0.06355253
90	0xbc11653c	-0.008874234
91	0xbe038d54	-0.12846881
92	0xbdc3d891	-0.09562791
93	0xbc9bc940	-0.019016862
94	0xbdfabf5d	-0.12243531
95	0xbe1b5e96	-0.151728
96	0x3e1a543d	0.15071197
97	0xbe2469e2	-0.16056016
98	0xbe1da1f4	-0.15393811
99	0x3dc2f5de	0.09519552
100	0x3e058bf3	0.13041668
101	0xbe30bb5f	-0.17258976
102	0x3e26420f	0.16236137
103	0x3cf79fe8	0.030227616
104	0xbdfa6ece	-0.122281656
105	0xbdd4ad03	-0.10384562
106	0x3ddde49a	0.10834618
107	0xbe283f66	-0.16430435
108	0x3c8573c8	0.01629056
109	0x3da8558e	0.08219443
110	0x3e208eb5	0.15679438
111	0xbdaed779	-0.08537192
112	0xbe2e2918	-0.17007864
113	0xbdbed999	-0.09318847
114	0x3ddb3dde	0.107051596
115	0x3db66dea	0.08907683
116	0x3e03cd0b	0.12871186
117	0xbe1bca57	-0.15213905
118	0x3d7dd288	0.061968356
119	0x3de5304a	0.11190851
120	0xbb0265c0	-0.0019897074
121	0x3ca926a8	0.020648316
122	0x3c307fc0	0.0107726455
123	0x3e301dd3	0.17198877
124	0x3d779ea0	0.06045401
125	0x3dcde6ea	0.10053809
126	0x3d99f0ea	0.07516654
127	0x3cea86e0	0.028628767
128	0x3d8bfe56	0.0683562
129	0xbdc0aa17	-0.09407442
130	0xbd89f4f5	-0.06736175
131	0xbdf96053	-0.121765755
132	0x3bcde441	0.0062833135
133	0xbd1946a8	-0.0374209
134	0xbdd6c054	-0.104859024
135	0xbc39edc9	-0.011348196
136	0xbe1052d4	-0.14094096
137	0xbd6034ac	-0.05473773
138	0xbe05716c	-0.13031548
139	0x3e04f9b7	0.12985884
140	0x3d0f7427	0.03502288
141	0x3e2d5137	0.16925512
142	0xbd2674fa	-0.0406389
143	0xbca7bb1a	-0.02047496
144	0x3c4319dd	0.011908022
145	0x3d93b0da	0.07211466
146	0xbe1c7d7b	-0.15282242
147	0x3e345f60	0.17614508
148	0xbe234079	-0.15942563
149	0x3d5df235	0.054186065
150	0x3b0d0ac6	0.0021521314
151	0x3e01b05e	0.12664935
152	0x3dcc7ae3	0.09984376
153	0xbd99e74d	-0.0751482
154	0x3d046d59	0.032330845
155	0xbd43d6e2	-0.04781235
156	0x3e1b71de	0.15180156
157	0xbe2f6148	-0.17126954
158	0xbdf6b656	-0.120464966
159	0xbdb0d257	-0.08633869
160	0xbc7db0b0	-0.01548402
161	0x3d866015	0.06561295
162	0x3d342b9e	0.04398691
163	0x3d6a6c5c	0.057232246
164	0x3a446228	0.0007491433
165	0xbce37fc0	-0.027770877
166	0xbe0a44b9	-0.13502778
167	0x3de1baee	0.11021982
168	0xbcd81000	-0.026374817
169	0x3d8aca47	0.067768626
170	0x3dca424d	0.09875927
171	0x3d943509	0.07236678
172	0xbe2dbea6	-0.16967258
173	0x3d895c1a	0.0670702
174	0xbce66180	-0.028122663
175	0x3d243516	0.04008969
176	0x3d602175	0.054719407
177	0x3d2752ed	0.04085057
178	0x3d7666da	0.06015668
179	0xbe00cbfe	-0.12577817
180	0xbdbf7951	-0.09349311
181	0x3d8a4deb	0.06753143
182	0x3e261ea5	0.16222627
183	0x3bb0c647	0.0053947303
184	0xbe16f254	-0.14740878
185	0x3d013019	0.03154001
186	0xbd936ca3	-0.07198455
187	0xbd8193ae	-0.06326996
188	0xbde096f7	-0.10966294
189	0xbde717ee	-0.11283861
190	0xbde08f64	-0.109648496
191	0x3e0e88de	0.13919398
192	0xbd3b1c24	-0.045681134
193	0x3e13f0e4	0.14447361
194	0x3dbb76ca	0.091535166
195	0x3da2f4ea	0.0795687
196	0xbda4fcea	-0.08056052
197	0x3d490bb8	0.04908344
198	0xbe092d18	-0.13396108
199	0x3e2db0ba	0.16961947
200	0x3c3917f0	0.011297211
201	0xbd3daf9c	-0.046310052
202	0xbc84ff98	-0.016235158
203	0x3e2d08c7	0.1689788
204	0x3e090a1b	0.13382761
205	0x3dbe7cc2	0.093011394
206	0xbd3eefc9	-0.046615396
207	0x3e2cd838	0.16879356
208	0xbc33e81e	-0.010980634
209	0xbde31b66	-0.1108921
210	0xbda8bebf	-0.08239507
211	0xbdf90944	-0.121599704
212	0x3d331212	0.043718405
213	0xbe09f7a4	-0.13473374
214	0xbda76957	-0.08174389
215	0xbded425c	-0.11584923
216	0x3dad3b5f	0.0845859
217	0xbc05fd30	-0.00817804
218	0xbb529df2	-0.00321376
219	0x3dcb5543	0.09928372
220	0x3dc7fd7e	0.09765147
221	0xbde1096f	-0.109881274
222	0x3d344ac5	0.04401662
223	0x3ccba1c3	0.024857407
224	0x3c337b90	0.010954753
225	0x3d087f00	0.03332424
226	0x3e0dc415	0.1384433
227	0x3d838b98	0.0642311
228	0xbe097d80	-0.1342678
229	0x3dc40ee6	0.09573154
230	0xbe3170df	-0.17328213
231	0x3d8d5eb6	0.0690283
232	0x3d16ff30	0.03686446
233	0xbdc76336	-0.0973572
234	0xbd8f0923	-0.069841646
235	0xbe1a88f9	-0.15091313
236	0x3df328de	0.11873029
237	0x3dbd931a	0.09256573
238	0x3da43c42	0.08019306
239	0x3e308e37	0.1724175
240	0xbd869bd5	-0.06572691
241	0x3d301c64	0.042995825
242	0x3d3276c8	0.04357031
243	0x3d30e2bc	0.04318498
244	0xbe346a41	-0.17618658
245	0x3db4b80a	0.08824165
246	0x3e29d8f7	0.16586672
247	0xbd94fc69	-0.07274706
248	0xbe1d6c05	-0.15373237
249	0x3e34e3d7	0.17665039
250	0xbde98047	-0.1140142
251	0xbce47b08	-0.027890697
252	0x3e23d641	0.159997
253	0xbcd6c1d0	-0.026215464
254	0x3d380bf4	0.044933274
255	0x3dc1aaf2	0.09456433

bias f4 [16]
0	0xbe288b7f	-0.16459464
1	0xbe33d690	-0.17562318
2	0x3e028671	0.12746598
3	0xbe281504	-0.16414267
4	0x3d7eddc2	0.062223203
5	0x3d4f938a	0.050677814
6	0x3a802959	0.0009777948
7	0xbe31600e	-0.17321798
8	0xbc8e0b70	-0.017339438
9	0xbdd908ea	-0.10597403
10	0x3e29aa5b	0.16568892
11	0x3e2737ee	0.16329929
12	0xbe113804	-0.14181525
13	0xbe12f412	-0.14350918
14	0xbda1bef8	-0.078977525
15	0xbdacd06f	-0.08438193

weight f4 [3, 16]
0	0x3e4e747c	0.20161623
1	0x3dc5bce4	0.09655169
2	0xbe06224e	-0.13099024
3	0xbb338180	-0.002739042
4	0x3e7e4180	0.24829674
5	0x3b188f65	0.002327883
6	0x3e4fb153	0.20282488
7	0xbddc61d0	-0.10760844
8	0x3c85597e	0.016278025
9	0xbe0879de	-0.13327739
10	0x3dd0ab08	0.101888716
11	0xbe1ad0f4	-0.15118772
12	0x3d96a4d0	0.07355654
13	0x3dd74cfc	0.105127305
14	0x3e24eaf2	0.1610525
15	0x3ccfa760	0.025348365
16	0xbdd34e7c	-0.10317704
17	0x3e633a0e	0.22190115
18	0xbe35b4db	-0.17744772
19	0x3dd22bdc	0.10262272
20	0x3df584e1	0.11988235
21	0xbe49f094	-0.1972068
22	0x3e5d58e5	0.21615942
23	0xbe04b4d0	-0.129596
24	0xbcfc49f6	-0.030796986
25	0x3d2a85d0	0.04163152
26	0x3e511f3a	0.20422068
27	0xbd19c3eb	-0.037540358
28	0xbe7a1972	-0.24423769
29	0xbe29a556	-0.16566977
30	0x3e4634d8	0.19356096
31	0xbe5cc890	-0.21560884
32	0x3e37cf6c	0.17950219
33	0x3e7bc202	0.24585727
34	0x3e5b178c	0.21395701
35	0x3b894fc0	0.004190415
36	0xbd5c8b76	-0.053843938
37	0xbe54f450	-0.20796323
38	0xbc67c48c	-0.0141459815
39	0xbe7101c2	-0.23535827
40	0x3d8f09cd	0.06984291
41	0x3e2faf1e	0.17156646
42	0xbd60b54c	-0.0548604
43	0xbe5ca3b3	-0.21546821
44	0x3d9f6dc0	0.07784605
45	0xbd8c87a4	-0.06861809
46	0xbe6ee048	-0.23327744
47	0x3d6af360	0.057361007

bias f4 [3]
0	0x3e7be556	0.24599203
1	0x3e7d6983	0.24747281
2	0xbdb10abe	-0.08644627
