lr_ws/src/deprecated_pkgs/skycam/skycam_util/skycam_convnet.pt (torch, 25877 bytes, 8 tensors)

features.0.weight f4 [16, 3, 3, 3]
0.14629093 -0.00832904 -0.03737277 -0.08041322 -0.033504464 0.070573024 -0.107789375 -0.062038172
-0.13914946 0.1737624 0.024764072 0.114222154 0.07431779 -0.037019856 -0.09696813 0.2324253
0.15985861 0.2372562 0.18233357 0.24555442 0.20614119 -0.09459286 0.02358916 0.018771308
0.21041122 0.07903852 0.097523674 -0.0604474 0.1518315 -0.056290958 0.17012429 0.12819715
0.030753631 0.08928 0.081192315 0.06082586 0.04906714 0.0382506 0.092758 -0.025353994
0.16051081 0.041053854 -0.10388621 -0.1455408 -0.11213919 0.08912737 0.18030459 -0.1408062
0.10137077 0.12334831 -0.1323422 0.04742156 0.0040873936 -0.018286742 0.18284057 0.068080395
-0.0797709 -0.12738155 -0.018122429 0.054649133 0.044597447 0.23216961 0.229628 -0.14067768
0.12981655 -0.014645528 -0.14217588 0.024445398 -0.10592489 0.15200914 0.017626977 0.015821338
0.17343256 0.07729231 0.20102185 0.14612438 0.14308378 -0.00046563018 0.20419894 0.08724858
0.0685328 0.15239416 -0.12567127 -0.09289325 -0.08839266 0.09611444 -0.05377003 0.059380088
-0.050789706 -0.045615815 0.08344399 0.09723057 0.14589427 0.21730815 -0.08606499 -0.016756
-0.015872119 0.07183608 0.1212432 0.2032639 0.19584204 0.1701445 0.21207601 -0.1191074
0.03512464 0.04146843 0.23296258 0.04549701 -0.09498942 -0.14513694 -0.00033004562 -0.13437472
-0.054725066 -0.14482537 0.12475019 -0.101010084 0.18165001 -0.0301625 -0.05955269 -0.06471683
-0.07194648 0.0050912774 0.23879758 -0.04779603 0.1899574 0.0009431846 0.10158266 0.16388726
0.10671517 0.1328303 0.23906642 0.10432972 0.1415506 0.23847632 0.09393109 -0.016542057
0.044627137 0.20600456 -0.1413151 -0.02913491 -0.022844173 -0.12830055 -0.13767697 -0.072508566
0.10850198 0.031162737 -0.06947312 0.03798382 0.10442377 0.14135568 0.13664341 0.035652615
-0.031387247 0.06862116 0.18449488 0.21700089 -0.10184126 0.19895123 0.20529048 -0.112703614
-0.10922122 -0.017541071 0.049773827 0.18716595 0.02126168 0.23716238 0.16378422 0.04787657
0.114786856 0.14202859 0.0014584007 0.1993266 0.13536212 -0.03221128 -0.10974161 0.06952266
0.011155218 0.17846817 -0.0031072353 0.100696266 -0.11480325 0.131835 0.19594549 -0.030062713
-0.098984525 0.059384193 -0.010869339 0.17118523 0.23167574 0.08064328 -0.062400397 0.19196253
0.09456966 -0.06616376 0.093833484 -0.010806923 0.15774341 0.013562584 0.11580143 0.0915646
-0.07006485 0.17699993 0.14541963 0.14357693 -0.019598583 0.21659108 -0.012723922 0.07199732
0.006632995 0.105620444 -0.033120625 0.1754496 -0.05414755 -0.093934774 -0.0073441374 0.11064587
-0.060551237 0.19915426 -0.113311216 0.22916557 0.039641205 -0.104016595 0.05504584 -0.122239314
0.19153783 0.23192655 -0.06253361 0.20432784 0.100010894 0.023887437 0.017352596 0.17345783
-0.049639758 -0.016319087 9.464429e-05 0.2451043 -0.09520454 -0.061718058 -0.04498523 0.065428734
0.06430447 -0.10999976 0.15558179 -0.10369759 -0.08164531 0.19609056 -0.15985669 -0.058843296
0.10242054 -0.13737257 0.1810167 0.093470864 0.12406609 0.024055881 0.08852902 -0.13956745
00000000: 4acd 153e 8776 08bc 3114 19bd b0af a4bd
00000010: fa3b 09bd 9788 903d adc0 dcbd bd1b 7ebd
00000020: 327d 0ebe c5ee 313e 06de ca3c 4eed e93d
00000030: ed33 983d 22a2 17bd 3a97 c6bd e600 6e3e
00000040: fab1 233e 4af3 723e a7b5 3a3e 9e72 7b3e
00000050: ad16 533e e7b9 c1bd 0e3e c13c 49c6 993c
00000060: 0a76 573e f3de a13d 7eba c73d b197 77bd
00000070: b779 1b3e 5991 66bd 1035 2e3e 1d46 033e
00000080: 0aef fb3c 6fd8 b63d 2848 a63d 8924 793d
00000090: a0fa 483d a9ac 1c3d e8f7 bd3d 2eb3 cfbc
000000a0: f25c 243e 1628 283d 4bc2 d4bd a608 15be
000000b0: 3ba9 e5bd 6988 b63d c4a1 383e 802f 10be
000000c0: 7a9b cf3d 0a9e fc3d b784 07be 1c3d 423d
000000d0: 8bef 853b 14ce 95bc 8f3a 3b3e bc6d 8b3d
000000e0: ed5e a3bd 4f70 02be 7d75 94bc c5d7 5f3d
000000f0: d0ab 363d dfbd 6d3e 9a23 6b3e cf0d 10be
00000100: a1ee 043e ccf3 6fbc 8e96 11be b741 c83c
00000110: 26ef d8bd 49a8 1b3e 7366 903c c09b 813c
00000120: 4e98 313e 6e4b 9e3d acd8 4d3e a1a1 153e
00000130: 8e84 123e d31f f4b9 8719 513e 62af b23d
00000140: ed5a 8c3d 370d 1c3e f8af 00be d13e bebd
00000150: 3607 b5bd a6d7 c43d f73d 5cbd 8938 733d
00000160: de08 50bd a6d7 3abd afe4 aa3d d220 c73d
00000170: 4f65 153e 0786 5e3e d742 b0bd e143 89bc
00000180: 3f06 82bc cb1e 933d 5b4e f83d 6924 503e
00000190: d18a 483e 5c3a 2e3e 742a 593e 95ee f3bd
000001a0: dbde 0f3d cdda 293d be8d 6e3e 135b 3a3d
000001b0: d089 c2bd c79e 14be f909 adb9 8799 09be
000001c0: 6427 60bd 1a4d 14be 077d ff3d 60de cebd
000001d0: 7602 3a3e 5917 f7bc 85ed 73bd 428a 84bd
000001e0: ad58 93bd bbd4 a63b 5a87 743e c5c5 43bd
000001f0: 3184 423e 0c40 773a 920a d03d 10d2 273e
00000200: 7c8d da3d ab04 083e d4cd 743e d2aa d53d
00000210: a4f2 103e 2333 743e f15e c03d 3583 87bc
00000220: f2ca 363d dcf2 523e e8b4 10be 56ac eebc
00000230: b423 bbbc 3861 03be 31fb 0cbe 5f7f 94bd
00000240: 4936 de3d ff48 ff3c ec47 8ebd ec94 1b3d
00000250: 21dc d53d 8bbf 103e 40ec 0b3e 7a08 123d
00000260: ea8f 00bd 4089 8c3d 3aec 3c3e 7b35 5e3e
00000270: 2792 d0bd dfb9 4b3e ab37 523e 27d1 e6bd
00000280: 60af dfbd 4bb2 8fbc a4df 4b3d 6ea8 3f3e
00000290: fa2c ae3c b2da 723e 0db7 273e 391a 443d
000002a0: 5f15 eb3d f16f 113e cf27 bf3a 461c 4c3e
000002b0: 5e9c 0a3e faef 03bd 36c0 e0bd e561 8e3d
000002c0: 60c4 363c 5cc0 363e c2a2 4bbb d839 ce3d
000002d0: f71d ebbd c1ff 063e efa5 483e 1446 f6bc
000002e0: 66b8 cabd d73c 733d 5015 32bc 2e4b 2f3e
000002f0: 683c 6d3e 4e28 a53d 8f97 7fbd d391 443e
00000300: bdad c13d de80 87bd c52b c03d 850f 31bc
00000310: 7d87 213e 9a35 5e3c 4d29 ed3d 3986 bb3d
00000320: 297e 8fbd 783f 353e e2e8 143e d505 133e
00000330: 358d a0bc 0dca 5d3e ff77 50bc 5573 933d
00000340: 9859 d93b 884f d83d 7ea9 07bd 0fa9 333e
00000350: d2c9 5dbd e060 c0bd 17a7 f0bb 4d9a e23d
00000360: 9304 78bd 18ef 4b3e b60f e8bd 61aa 6a3e
00000370: d15e 223d a706 d5bd bf77 613d 9b58 fabd
00000380: 7e22 443e 277e 6d3e 9f11 80bd 513b 513e
00000390: 83d2 cc3d 96af c33c 0827 8e3c ee9e 313e
000003a0: 0f53 4bbd 9baf 85bc c47b c638 9ffc 7a3e
000003b0: 99fa c2bd 13cc 7cbd 6f42 38bd 80ff 853d
000003c0: 10b2 833d 8e47 e1bd d550 1f3e 675f d4bd
000003d0: a835 a7bd f7cb 483e 79b1 23be ab05 71bd
000003e0: dcc1 d13d 65ab 0cbe 715c 393e a76d bf3d
000003f0: 5d16 fe3d d710 c53c b44e b53d c5ea 0ebe

features.0.bias f4 [16]
-0.027499152 0.09087633 -0.035195854 -0.0058482913 -0.035932317 -0.15806362 -0.1262555 -0.028260797
-0.039364878 0.063420534 0.12075654 0.18121615 0.022843333 -0.0035377215 -0.04344705 0.08550186
00000000: e745 e1bc 5f1d ba3d 8729 10bd 06a3 bfbb
00000010: c42d 13bd 6edb 21be 1f49 01be 3083 e7bc
00000020: 113d 21bd a0e2 813d 344f f73d ba90 393e
00000030: f121 bb3c 1ed9 67bb 89f5 31bd 991b af3d

features.3.weight f4 [32, 16, 3, 3]
-0.022732137 0.058363207 0.047017425 0.07491051 0.030694395 0.096478395 -0.012760016 0.1359769
-0.020555533 -0.023693575 0.016996153 -0.04240165 0.023064047 0.047895726 0.11272514 0.0139881205
-0.025331367 -0.017590215 -0.025913674 0.0876583 -0.028239934 0.12259375 0.11637659 0.02980839
0.012035246 -0.010722875 0.02400275 0.12433741 0.091598414 -0.0019002683 0.062015794 0.00603391
-0.023616536 0.07449937 0.0063160355 0.102158695 -0.0072406 0.039015606 0.10047624 0.09816324
0.041074246 0.09922626 0.016292686 0.07540295 -0.022204582 0.08795946 0.10734907 0.12368162
0.10844798 0.022116568 0.07495944 0.070668794 0.044316746 0.033250786 -0.010761169 0.028383462
-0.010957266 -0.03408077 0.09149108 0.044791 0.027990159 0.11715223 -0.03284692 -0.008398979
0.10868685 0.05892806 0.06746614 0.07388723 0.07415584 0.12879278 0.06395046 0.089916244
0.11418436 0.118133925 0.114932835 -0.033109955 0.012257769 0.06305078 0.10642005 0.012185166
0.083928496 -0.17738123 -0.07423823 -0.13621278 -0.20312868 -0.06666465 -0.14476162 -0.18708944
-0.08144141 -0.049783736 0.04072306 0.08809519 0.09801851 0.012978864 0.10793201 0.061002195
-0.009295756 -0.0026735577 0.08644109 0.10081259 0.033754017 0.044167798 -0.027897917 0.044221837
-5.7142306e-06 0.03766108 0.10196302 -0.01827263 0.037213538 0.10290178 0.055969812 -0.0212069
0.078466736 0.059525963 0.1017281 0.055340637 -0.01671718 -0.059550937 0.029353766 0.009046651
0.011958262 0.0592268 0.047597855 -0.098148346 -0.014339661 -0.035822537 0.12257622 -0.003769307
0.047240198 0.046959497 0.10805281 0.10751253 0.05933461 0.07566941 0.11594987 0.105619594
0.04655192 0.063692085 0.10505972 -0.01091012 0.07885754 0.0140911145 0.0041525434 0.079307236
0.028591318 0.05768404 0.09387057 0.054224283 0.01836218 0.12452165 0.10432867 0.08193427
0.04772873 -0.017324166 0.10228049 0.04435104 0.07516932 0.044565294 0.041746676 0.06661215
0.015816525 -0.0043482576 0.054818764 -0.008335224 0.089307085 0.13718142 0.07681671 0.03994527
0.020913541 0.11068962 0.122574545 0.14890397 0.10107741 0.06941582 0.07948779 0.072175376
0.01560134 0.14864774 0.10074476 0.10415327 0.037570212 0.044773526 0.09583697 0.037280556
0.08010421 0.10340618 0.04633026 0.110984445 0.109319255 0.0034804246 0.049135298 0.08248311
0.08697662 0.045500264 0.07147036 0.010579775 0.037089843 -0.020986361 0.054461747 -0.022293987
0.12469058 -0.0056132465 -0.0005606898 0.017050287 0.059658814 0.040154304 0.0033589734 0.115087315
-0.009617422 0.11005555 0.09990723 0.072007574 -0.0017033505 0.011705621 0.12559131 -0.010434842
0.12206534 0.042545743 0.080922164 0.013075831 0.00027299664 0.12960759 0.0828169 0.01213351
-0.03218646 -0.13268317 -0.115231186 -0.14856248 -0.09359669 -0.17864767 -0.15900359 -0.23161769
-0.050960112 -0.11411722 0.06064273 0.08998295 0.059253216 0.080673195 -0.029389536 0.029793525
-0.034364127 0.040635902 0.0054660174 0.07938807 0.12139592 0.10645183 0.11048581 0.08014865
-0.005487382 0.11553693 0.10443181 0.005740829 0.081535034 0.10402954 0.057167277 0.11413522
00000000: bf38 babc 420e 6f3d 5895 403d ae6a 993d
00000010: d072 fb3c 7796 c53d 630f 51bc 873d 0b3e
00000020: 1464 a8bc 0719 c2bc 843b 8b3c 5aad 2dbd
00000030: d0f0 bc3c 4f2e 443d 70dc e63d 6e2e 653c
00000040: ba83 cfbc 5b19 90bc ea48 d4bc 3286 b33d
00000050: 6f57 e7bc 6f12 fb3d da56 ee3d ba30 f43c
00000060: 7b2f 453c ffae 2fbc 6aa1 c43c 9da4 fe3d
00000070: f397 bb3d 6c12 f9ba 4604 7e3d 1bb8 c53b
00000080: 7777 c1bc 2093 983d bff6 ce3b 9438 d13d
00000090: 8e42 edbb d4ce 1f3d 7dc6 cd3d cf09 c93d
000000a0: 783d 283d 2337 cb3d 3d78 853c dd6c 9a3d
000000b0: 62e6 b5bc 1724 b43d d4d9 db3d ca4c fd3d
000000c0: f919 de3d ce2d b53c 5684 993d cdba 903d
000000d0: 7a85 353d fa31 083d 9d4f 30bc 6f84 e83c
000000e0: 1b86 33bc 4798 0bbd ad5f bb3d c576 373d
000000f0: 9e4b e53c 82ed ef3d 7e8a 06bd df9b 09bc
00000100: 3697 de3d 8d5e 713d b02b 8a3d 3052 973d
00000110: 04df 973d 41e2 033e 75f8 823d 0226 b83d
00000120: 7dd9 e93d 33f0 f13d e861 eb3d 4e9e 07bd
00000130: cfd4 483c c420 813d c1f2 d93d 4aa4 473c
00000140: b4e2 ab3d 6da3 35be 370a 98bd 5d7b 0bbe
00000150: f700 50be 7a87 88bd 643c 14be 6094 3fbe
00000160: c1ca a6bd 08ea 4bbd 39cd 263d 406b b43d
00000170: eebd c83d 4da5 543c 750b dd3d 70dd 793d
00000180: 3a4d 18bc db36 2fbb 0708 b13d d576 ce3d
00000190: a741 0a3d 4be9 343d 2c8a e4bc f521 353d
000001a0: debc bfb6 8142 1a3d fdd1 d03d 7cb0 95bc
000001b0: 396d 183d 2bbe d23d 9a40 653d 18ba adbc
000001c0: 2bb3 a03d 7fd1 733d d256 d03d ddac 623d
000001d0: 78f2 88bc afeb 73bd 4f77 f03c 6838 143c
000001e0: 96ec 433c cd97 723d f8f5 423d 0002 c9bd
000001f0: e6f0 6abc a7ba 12bd 3e09 fb3d 7a06 77bb
00000200: f07e 413d 9a58 403d cb4a dd3d 882f dc3d
00000210: d908 733d 90f8 9a3d 2077 ed3d 164f d83d
00000220: 3aad 3e3d ff70 823d 8d29 d73d 5cc0 32bc
00000230: 1080 a13d 6bde 663c 0f12 883b d56b a23d
00000240: 5738 ea3c 1a46 6c3d 373f c03d 481a 5e3d
00000250: 486c 963c 3505 ff3d 45aa d53d 28cd a73d
00000260: 337f 433d 69eb 8dbc 6f78 d13d 70a9 353d
00000270: 5ff2 993d 198a 363d 90fe 2a3d f36b 883d
00000280: a891 813c d47b 8ebb a489 603d 7790 08bc
00000290: a2e6 b63d 4979 0c3e 1452 9d3d a79d 233d
000002a0: e052 ab3c 3db1 e23d 5d08 fb3d 487a 183e
000002b0: ac01 cf3d e229 8e3d 7fca a23d afd0 933d
000002c0: c39c 7f3c 1d37 183e 4553 ce3d 4f4e d53d
000002d0: 39e3 193d 7264 373d 2c46 c43d 7fb3 183d
000002e0: ad0d a43d 9fc6 d33d ccc4 3d3d d04b e33d
000002f0: c6e2 df3d d617 643b 1842 493d e8ec a83d
00000300: cc20 b23d 7c5e 3a3d 0d5f 923d cb56 2d3c
00000310: 85eb 173d 97eb abbc 4813 5f3d e1a1 b6bc
00000320: c65d ff3d 53ef b7bb 41fb 12ba 0bad 8b3c
00000330: cd5c 743d d778 243d 3922 5c3b e6b2 eb3d
00000340: 6492 1dbc ce64 e13d 299c cc3d b578 933d
00000350: f542 dfba efc8 3f3c 029b 003e e6f6 2abc
00000360: 65fd f93d 7244 2e3d 85ba a53d 033c 563c
00000370: fd20 8f39 dab7 043e e89b a93d a1cb 463c
00000380: f3d5 03bd 19de 07be 54fe ebbd c320 18be
00000390: 9faf bfbd 6aef 36be d6d1 22be 302d 6dbe
000003a0: 8dbb 50bd 4ab6 e9bd 8364 783d fb48 b83d
000003b0: 80b3 723d fd37 a53d 53c2 f0bc 8d11 f43c
000003c0: 66c1 0cbd d571 263d 471c b33b 3696 a23d
000003d0: 6d9e f83d 6b03 da3d 6246 e23d fa24 a43d
000003e0: 7fcf b3bb a09e ec3d 58e0 d53d 901d bc3b
000003f0: d7fb a63d 710d d53d 3c28 6a3d babf e93d

features.3.bias f4 [32]
0.059031613 0.024664557 -0.055421352 -0.02832055 0.026311584 -0.01316525 0.023647191 0.035805788
0.047279883 0.11215611 0.02647207 -0.082157426 0.07315774 0.042972837 -0.022308758 -0.06484449
0.08582905 0.055274665 0.081852056 -0.012189683 -0.051328853 0.10081204 -0.06638079 0.006247859
0.07864803 0.07882655 0.06257058 -0.01616508 -0.06275241 -0.057268377 -0.003487146 -0.09105417
00000000: 22cb 713d 530d ca3c 8001 63bd 8000 e8bc
00000010: 648b d73c 10b3 57bc c1b7 c13c 17a9 123d
00000020: 8da8 413d 1ab2 e53d f4db d83c 2742 a8bd
00000030: bad3 953d 4904 303d dbc0 b6bc 30cd 84bd
00000040: 24c7 af3d b067 623d 0da2 a73d 3cb7 47bc
00000050: 343e 52bd 8b76 ce3d a7f2 87bd d7ba cc3b
00000060: 3812 a13d d06f a13d 0125 803d a16c 84bc
00000070: 5684 80bd 3f92 6abd 9a88 64bb 9c7a babd

head.1.weight f4 [16, 32]
0.15424924 0.1915991 0.093780264 0.031692386 0.13600871 -0.13990626 0.029487945 0.09202892
0.00013008268 0.071070336 0.003385471 -0.034068305 0.008622472 0.14613675 -0.007847182 -0.013246656
-0.10575591 -0.04369826 -0.0014283338 0.16235392 0.16409759 0.18813792 0.012770305 -0.076918036
0.15751766 0.13331817 0.041578833 0.04893028 0.08821823 0.018267304 -0.27865538 0.1525888
0.017616363 0.18828624 0.057631474 0.15862454 -0.118721545 -0.08025248 -0.13846059 0.17705047
-0.019286549 0.04954248 0.05295095 0.08656063 0.029203206 0.010652835 0.041816864 -0.035176236
0.1774136 -0.014042889 0.15915954 -0.049143173 0.14107598 0.1282869 0.12760136 0.08175372
0.069355875 -0.017921058 -0.048372205 -0.023114199 -0.0640696 -0.09676517 -0.08880537 -0.13536702
-0.06935279 -0.17386419 0.15289056 -0.07469336 -0.03103436 0.072311886 0.075651266 0.11840726
-0.15478611 0.010022397 0.15630573 -0.052420583 0.095638044 0.048265938 0.13928507 0.10748552
-0.0021275762 0.07258885 -0.027805803 -0.041451488 0.09382911 -0.038626973 0.01914284 -0.13589494
-0.122848 0.06852891 0.10416774 -0.13720421 -0.058214325 0.074700095 0.1632124 0.12540098
0.060962074 0.20598674 -0.05764433 0.014691263 0.1751361 0.11568929 -0.31290403 0.16027342
-0.13529038 0.11023139 0.049617797 0.038926616 -0.079209715 -0.07261487 -0.02101062 0.11419117
0.04014167 0.0072421366 0.20246522 -0.119444996 -0.07756205 0.13526855 0.025071993 -0.041898184
0.10659214 0.070546314 -0.08958587 0.08330171 0.03109026 -0.13791423 -0.17814001 0.12049703
-0.13267136 0.035779506 -0.057725318 0.121582255 0.16032873 -0.01600031 -0.13663867 0.021274405
0.10263412 -0.17863432 0.07267841 0.018044258 -0.070703395 0.06982638 -0.014451931 -0.16313928
-0.17223892 0.14038998 0.13745077 -0.17018686 0.07636816 0.017685637 0.109834835 -0.018676182
-0.07171572 0.081874944 -0.11056121 0.052556507 -0.075703196 -0.12935287 -0.011563833 0.04403004
-0.18434128 0.002765991 -0.025927618 0.016806269 0.076804385 0.14774029 -0.027506808 -0.1676455
-0.04236976 0.13094854 -0.15114458 0.019570872 0.14257815 -0.08664422 0.13383053 -0.14432356
-0.03167213 0.07973961 0.011474751 0.005105773 -0.09941289 0.019514216 -0.13689555 0.12515768
-0.03325128 -0.0034614445 -0.16175885 -0.021291263 -0.16494589 -0.020348877 -0.04513371 -0.16352147
-0.12649891 0.13271567 -0.111369655 0.04778333 0.03140786 -0.017387956 -0.16638161 -0.11123911
-0.037726622 -0.15887715 0.0070649087 0.097171724 0.034398247 0.026115442 0.0043677525 -0.11110841
-0.11014005 0.005110416 0.13457689 0.0842087 -0.09068382 0.11548132 -0.12867998 0.011937511
-0.18374152 -0.040484954 0.03177863 0.029700657 -0.17495668 0.047125295 0.12980618 -0.10746274
0.11874948 -0.05110737 -0.17463526 0.19225883 0.026127852 -0.033944122 0.06824965 -0.11478443
0.055989463 0.001045909 -0.066855274 -0.009344669 0.15227523 0.17718929 -0.06779517 -0.04471657
0.14879361 0.21130067 0.1026381 0.010422059 0.09308788 0.18695977 -0.14674324 0.058383252
0.17704527 0.13898672 0.21171838 0.17465019 -0.047634143 -0.137701 -0.20333391 -0.03247698
00000000: 83f3 1d3e 8e32 443e de0f c03d e0cf 013d
00000010: de45 0b3e 9643 0fbe b490 f13c a979 bc3d
00000020: ce66 0839 538d 913d c7de 5d3b 358b 0bbd
00000030: 4545 0d3c dfa4 153e 7891 00bc 8108 59bc
00000040: 8e96 d8bd f2fc 32bd ee36 bbba 1b40 263e
00000050: 3309 283e 3aa7 403e 8b3a 513c 3487 9dbd
00000060: 4f4c 213e 8f84 083e 914e 2a3d 1e6b 483d
00000070: c2ab b43d 50a5 953c ebab 8ebe 3d40 1c3e
00000080: 3150 903c 1cce 403e fb0e 6c3d 796e 223e
00000090: 4824 f3bd 6a5b a4bd 9dc8 0dbe b84c 353e
000000a0: d3fe 9dbc 0eed 4a3d 18e3 583d b346 b13d
000000b0: 903b ef3c 3a89 2e3c 2948 2b3d f514 10bd
000000c0: e9ab 353e 2514 66bc b8fa 223e 5a4a 49bd
000000d0: 3976 103e a45d 033e eea9 023e 7f6e a73d
000000e0: 740a 8e3d 2fcf 92bc ef21 46bd fd59 bdbc
000000f0: ec36 83bd d12c c6bd 97df b5bd a79d 0abe
00000100: d608 8ebd 7409 32be 588f 1c3e d5f8 98bd
00000110: c53b febc 4118 943d 0def 9a3d 817f f23d
00000120: 4080 1ebe fb34 243c 9c0e 203e f7b6 56bd
00000130: e1dd c33d 81b2 453d bfa0 0e3e 5e21 dc3d
00000140: ce6e 0bbb 77a9 943d ffc8 e3bc 09c9 29bd
00000150: 7a29 c03d 5137 1ebd 72d1 9c3c 0b28 0bbe
00000160: bb97 fbbd e358 8c3d e555 d53d 437f 0cbe
00000170: 2572 6ebd 5dfc 983d 2721 273e 1d69 003e
00000180: 5eb3 793d 30ee 523e 761c 6cbd a0b3 703c
00000190: e156 333e 82ee ec3d f534 a0be b71e 243e
000001a0: 9089 0abe ffc0 e13d 083c 4b3d 8471 1f3d
000001b0: b438 a2bd 1bb7 94bd 771e acbc 0fdd e93d
000001c0: 976b 243d 724f ed3b 0b53 4f3e 949f f4bd
000001d0: dad8 9ebd d783 0a3e c863 cd3c 6e9d 2bbd
000001e0: fb4c da3d 967a 903d cc78 b7bd 169a aa3d
000001f0: 00b1 fe3c 6339 0dbe 566a 36be 26c7 f63d
00000200: 00db 07be 888d 123d 6271 6cbd 1e00 f93d
00000210: 372d 243e 1513 83bc 02eb 0bbe a947 ae3c
00000220: d631 d23d eaeb 36be 6bd8 943d 8dd1 933c
00000230: f1cc 90bd 2201 8f3d cbc7 6cbc fc0d 27be
00000240: 665f 30be 64c2 0f3e e5bf 0c3e 7745 2ebe
00000250: e966 9c3d 78e1 903c 16f1 e03d cbfe 98bc
00000260: b1df 92bd 0dae a73d ea6d e2bd 7e45 573d
00000270: 470a 9bbd 1475 04be 3b76 3dbc d858 343d
00000280: f6c3 3cbe a145 353b 2866 d4bc 4dad 893c
00000290: 9e4b 9d3d 3b49 173e f555 e1bc 43ab 2bbe
000002a0: ea8b 2dbd 6017 063e a5c5 1abe 1853 a03c
000002b0: 0200 123e 8672 b1bd df0a 093e 8ec9 13be
000002c0: a3ba 01bd 854e a33d 9800 3c3c 544e a73b
000002d0: fc98 cbbd 47dc 9f3c 592e 0cbe 5629 003e
000002e0: 7f32 08bd 67d9 62bb 1da4 25be 046b aebc
000002f0: 93e7 28be b0b2 a6bc 20de 38bd 2c72 27be
00000300: ee88 01be 9ee6 073e c615 e4bd 74b8 433d
00000310: 87a5 003d 3071 8ebc f15f 2abe 55d1 e3bd
00000320: 3b87 1abd b1b0 22be c080 e73b f801 c73d
00000330: 2de5 0c3d 0df0 d53c 5d1f 8f3b ce8c e3bd
00000340: 1b91 e1bd 4775 a73b 86ce 093e 9c75 ac3d
00000350: 70b8 b9bd 7881 ec3d afc4 03be 8d95 433c
00000360: bd26 3cbe 8dd3 25bd 4f2a 023d cb4e f33c
00000370: d827 33be 7406 413d e9eb 043e 6d15 dcbd
00000380: ed32 f33d f655 51bd 96d3 32be 80df 443e
00000390: 140a d63c fe08 0bbd 79c6 8b3d 1914 ebbd
000003a0: 3555 653d e216 893a 6beb 88bd 621a 19bc
000003b0: 0aee 1b3e 1c71 353e 32d8 8abd b928 37bd
000003c0: 5a5d 183e 345f 583e ed33 d23d 49c1 2a3c
000003d0: dca4 be3d 6272 3f3e dc43 16be 4723 6f3d
000003e0: 5b4b 353e 8952 0e3e b4cc 583e 80d7 323e
000003f0: 051c 43bd 7e01 0dbe c436 50be 9506 05bd

head.1.bias f4 [16]
-0.09098765 0.13822696 0.031731658 -0.09847752 0.00699773 -0.13277555 -0.11462338 0.050113343
-0.1275003 -0.083691604 -0.07995118 -0.037963897 -0.07549257 0.19997743 -0.075337365 0.028943162
00000000: bc57 babd 5e8b 0d3e 0ef9 013d 95ae c9bd
00000010: 374d e53b 50f6 07be aabf eabd a643 4d3d
00000020: 708f 02be 8166 abbd 72bd a3bd 0880 1bbd
00000030: d99b 9abd e2c6 4c3e 7a4a 9abd 361a ed3c

head.3.weight f4 [3, 16]
0.19721696 -0.03227422 -0.21107873 0.25853592 -0.002936089 -0.18802497 0.07351788 0.046909302
0.011343092 -0.028120726 -0.06418431 0.1987356 -0.062233776 0.19321586 0.1932278 0.21145129
0.03895074 0.2525454 -0.19217274 0.23257777 -0.17382927 -0.055921398 -0.21798603 0.27831236
0.09679246 -0.126939 -0.15932028 0.11451095 -0.02969557 0.024020469 -0.003469135 -0.20217033
0.11237422 0.14783458 -0.0559883 -0.14577377 -0.1348127 -0.18274711 0.010676287 0.10238353
0.2206493 -0.17684993 0.08163608 0.0019460022 0.17848578 -0.0020585144 -0.108347245 0.01838458
00000000: 3ef3 493e f931 04bd 0625 58be d25e 843e
00000010: 666b 40bb 9e89 40be 8b90 963d f823 403d
00000020: 60d8 393c 705d e6bc 1073 83bd 5881 4b3e
00000030: d8e8 7ebd 61da 453e 82dd 453e b086 583e
00000040: d08a 1f3d a14d 813e eec8 44be de28 6e3e
00000050: 4d00 32be d60d 65bd bb37 5fbe f57e 8e3e
00000060: 203b c63d 4cfc 01be db24 23be b884 ea3d
00000070: 2044 f3bc 93c6 c43c 6d5a 63bb bd05 4fbe
00000080: 7424 e63d f361 173e fd53 65bd b845 15be
00000090: 570c 0abe 0f22 3bbe 98eb 2e3c 75ae d13d
000000a0: e4f1 613e 2618 35be d130 a73d 0011 ff3a
000000b0: fac4 363e 24e8 06bb 29e5 ddbd 429b 963c

head.3.bias f4 [3]
0.15169826 -0.0767869 0.19416606
00000000: ca56 1b3e 7342 9dbd 78d3 463e
